…
1,  1.15s/it]Loading checkpoint shards: 100%|â–ˆâ–ˆâ–ˆâ–ˆâ–ˆâ–ˆâ–ˆâ–ˆâ–ˆâ–ˆâ–ˆâ–ˆâ–ˆâ–ˆâ–ˆâ–ˆâ–ˆâ–ˆ| 4/4 [00:04<00:00,  1.12s/it]Loading checkpoint shards: 100%|â–ˆâ–ˆâ–ˆâ–ˆâ–ˆâ–ˆâ–ˆâ–ˆâ–ˆâ–ˆâ–ˆâ–ˆâ–ˆâ–ˆâ–ˆâ–ˆâ–ˆâ–ˆ| 4/4 [00:04<00:00,  1.10s/it]
[INFO:swift] default_system: None
[INFO:swift] max_length: 40960
[INFO:swift] response_prefix: ''
[INFO:swift] agent_template: hermes
[INFO:swift] norm_bbox: norm1000
[INFO:swift] model: PeftModelForCausalLM(
  (base_model): LoraModel(
    (model): Ovis2_5(
      (llm): Qwen3ForCausalLM(
        (model): Qwen3Model(
          (embed_tokens): Embedding(151936, 4096)
          (layers): ModuleList(
            (0-35): 36 x Qwen3DecoderLayer(
              (self_attn): Qwen3Attention(
                (q_proj): lora.Linear(
                  (base_layer): Linear(in_features=4096, out_features=4096, bias=False)
                  (lora_dropout): ModuleDict(
                    (default): Dropout(p=0.05, inplace=False)
                  )
                  (lora_A): ModuleDict(
                    (default): Linear(in_features=4096, out_features=64, bias=False)
                  )
                  (lora_B): ModuleDict(
                    (default): Linear(in_features=64, out_features=4096, bias=False)
                  )
                  (lora_embedding_A): ParameterDict()
                  (lora_embedding_B): ParameterDict()
                  (lora_magnitude_vector): ModuleDict()
                )
                (k_proj): lora.Linear(
                  (base_layer): Linear(in_features=4096, out_features=1024, bias=False)
                  (lora_dropout): ModuleDict(
                    (default): Dropout(p=0.05, inplace=False)
                  )
                  (lora_A): ModuleDict(
                    (default): Linear(in_features=4096, out_features=64, bias=False)
                  )
                  (lora_B): ModuleDict(
                    (default): Linear(in_features=64, out_features=1024, bias=False)
                  )
                  (lora_embedding_A): ParameterDict()
                  (lora_embedding_B): ParameterDict()
                  (lora_magnitude_vector): ModuleDict()
                )
                (v_proj): lora.Linear(
                  (base_layer): Linear(in_features=4096, out_features=1024, bias=False)
                  (lora_dropout): ModuleDict(
                    (default): Dropout(p=0.05, inplace=False)
                  )
                  (lora_A): ModuleDict(
                    (default): Linear(in_features=4096, out_features=64, bias=False)
                  )
                  (lora_B): ModuleDict(
                    (default): Linear(in_features=64, out_features=1024, bias=False)
                  )
                  (lora_embedding_A): ParameterDict()
                  (lora_embedding_B): ParameterDict()
                  (lora_magnitude_vector): ModuleDict()
                )
                (o_proj): lora.Linear(
                  (base_layer): Linear(in_features=4096, out_features=4096, bias=False)
                  (lora_dropout): ModuleDict(
                    (default): Dropout(p=0.05, inplace=False)
                  )
                  (lora_A): ModuleDict(
                    (default): Linear(in_features=4096, out_features=64, bias=False)
                  )
                  (lora_B): ModuleDict(
                    (default): Linear(in_features=64, out_features=4096, bias=False)
                  )
                  (lora_embedding_A): ParameterDict()
                  (lora_embedding_B): ParameterDict()
                  (lora_magnitude_vector): ModuleDict()
                )
                (q_norm): Qwen3RMSNorm((128,), eps=1e-06)
                (k_norm): Qwen3RMSNorm((128,), eps=1e-06)
              )
              (mlp): Qwen3MLP(
                (gate_proj): lora.Linear(
                  (base_layer): Linear(in_features=4096, out_features=12288, bias=False)
                  (lora_dropout): ModuleDict(
                    (default): Dropout(p=0.05, inplace=False)
                  )
                  (lora_A): ModuleDict(
                    (default): Linear(in_features=4096, out_features=64, bias=False)
                  )
                  (lora_B): ModuleDict(
                    (default): Linear(in_features=64, out_features=12288, bias=False)
                  )
                  (lora_embedding_A): ParameterDict()
                  (lora_embedding_B): ParameterDict()
                  (lora_magnitude_vector): ModuleDict()
                )
                (up_proj): lora.Linear(
                  (base_layer): Linear(in_features=4096, out_features=12288, bias=False)
                  (lora_dropout): ModuleDict(
                    (default): Dropout(p=0.05, inplace=False)
                  )
                  (lora_A): ModuleDict(
                    (default): Linear(in_features=4096, out_features=64, bias=False)
                  )
                  (lora_B): ModuleDict(
                    (default): Linear(in_features=64, out_features=12288, bias=False)
                  )
                  (lora_embedding_A): ParameterDict()
                  (lora_embedding_B): ParameterDict()
                  (lora_magnitude_vector): ModuleDict()
                )
                (down_proj): lora.Linear(
                  (base_layer): Linear(in_features=12288, out_features=4096, bias=False)
                  (lora_dropout): ModuleDict(
                    (default): Dropout(p=0.05, inplace=False)
                  )
                  (lora_A): ModuleDict(
                    (default): Linear(in_features=12288, out_features=64, bias=False)
                  )
                  (lora_B): ModuleDict(
                    (default): Linear(in_features=64, out_features=4096, bias=False)
                  )
                  (lora_embedding_A): ParameterDict()
                  (lora_embedding_B): ParameterDict()
                  (lora_magnitude_vector): ModuleDict()
                )
                (act_fn): SiLU()
              )
              (input_layernorm): Qwen3RMSNorm((4096,), eps=1e-06)
              (post_attention_layernorm): Qwen3RMSNorm((4096,), eps=1e-06)
            )
          )
          (norm): Qwen3RMSNorm((4096,), eps=1e-06)
          (rotary_emb): Qwen3RotaryEmbedding()
        )
        (lm_head): Linear(in_features=4096, out_features=151936, bias=False)
      )
      (visual_tokenizer): VisualTokenizer(
        (vit): Siglip2NavitModel(
          (vision_model): Siglip2VisionTransformer(
            (embeddings): Siglip2VisionEmbeddings(
              (patch_embedding): Conv2d(3, 1152, kernel_size=(16, 16), stride=(16, 16), padding=valid)
              (position_embedding): Embedding(1024, 1152)
            )
            (encoder): Siglip2Encoder(
              (layers): ModuleList(
                (0-26): 27 x Siglip2EncoderLayer(
                  (layer_norm1): LayerNorm((1152,), eps=1e-06, elementwise_affine=True)
                  (self_attn): Siglip2Attention(
                    (k_proj): Linear(in_features=1152, out_features=1152, bias=True)
                    (v_proj): Linear(in_features=1152, out_features=1152, bias=True)
                    (q_proj): Linear(in_features=1152, out_features=1152, bias=True)
                    (out_proj): Linear(in_features=1152, out_features=1152, bias=True)
                  )
                  (layer_norm2): LayerNorm((1152,), eps=1e-06, elementwise_affine=True)
                  (mlp): Siglip2MLP(
                    (activation_fn): PytorchGELUTanh()
                    (fc1): Linear(in_features=1152, out_features=4304, bias=True)
                    (fc2): Linear(in_features=4304, out_features=1152, bias=True)
                  )
                )
              )
              (rotary_pos_emb): VisionRotaryEmbedding()
            )
            (post_layernorm): LayerNorm((1152,), eps=1e-06, elementwise_affine=True)
          )
        )
        (head): Sequential(
          (0): Linear(in_features=4608, out_features=65532, bias=False)
          (1): LayerNorm((65532,), eps=1e-05, elementwise_affine=True)
        )
      )
      (vte): VisualEmbedding(65536, 4096)
    )
  )
)
[INFO:swift] Start time of running main: 2025-08-29 10:14:56.763516
[INFO:swift] swift.__version__: 3.7.2
[INFO:swift] request_config: RequestConfig(max_tokens=4096, temperature=0.0, top_k=None, top_p=None, repetition_penalty=None, num_beams=1, stop=[], seed=None, stream=False, logprobs=False, top_logprobs=None, n=1, best_of=None, presence_penalty=0.0, frequency_penalty=0.0, length_penalty=1.0, return_details=False)
…
